D_rnc1.pth (torch, 140660 bytes, 7 tensors)

model.0.weight f4 [128, 9]
000000 fe 6c 2a bd c3 76 05 bc e9 8a 38 be df 66 3a 3d
       -0.04160785 -0.008145991 -0.1802174 0.04550826
000010 42 05 44 be 80 17 1f 3d b0 ba 60 be 0f 78 a4 3d
       -0.1914263 0.03884077 -0.21946216 0.08030712
000020 7f 82 e8 3c e9 8c 45 bd ef f9 60 be 79 6a 38 be
       0.028382538 -0.048230086 -0.21970342 -0.18009366
000030 8d 51 d1 3e e8 87 08 3d c8 8d 2b 3e 5c 38 a5 3d
       0.4088253 0.033332735 0.16753304 0.0806739
000040 32 32 2f 3d fe 2d 69 3e a6 ef 13 3e fc 6c ed 3b
       0.04277248 0.22771451 0.14446887 0.007245658
000050 4d 4f cb be dc 46 23 3f 60 0e 1d 3d fb f5 c3 bb
       -0.3970894 0.6378 0.038343787 -0.005980251
000060 a4 88 fb 3d 10 9f a6 be f9 bd c3 3d 1e f7 7b bd
       0.122819215 -0.3254323 0.09557719 -0.061514966
000070 59 25 a1 bc 83 e9 00 be 75 ce 33 3e b8 0a 98 be
       -0.019671129 -0.12589078 0.17559226 -0.29695678
000080 7f 63 b6 be 60 80 ed 3c 99 a1 df bd c0 31 77 3d
       -0.35622784 0.028991878 -0.10919494 0.06035018
000090 17 a9 b9 3e 5b 2b 79 bd 7a 77 f3 3d 0b 0d 92 bd
       0.36261818 -0.060832363 0.11888023 -0.07131394
0000a0 cf b2 72 3d 7b f7 7b bd 0f cc fd bc 80 e4 1c 3e
       0.059252556 -0.061515313 -0.030981092 0.15321541
0000b0 da 3e 6f be 02 8f 0d bf 7d b2 a3 3d f3 c0 93 be
       -0.2336382 -0.5529634 0.07993028 -0.28858146
0000c0 ef 75 27 3e da a2 03 be 68 27 84 3d 2b a5 da 3d
       0.16353582 -0.12855092 0.06452829 0.106760345
0000d0 bc 78 cd bd 08 5a fa 3d f9 9a 98 bc a8 7f 39 be
       -0.10032794 0.12224203 -0.018628584 -0.18115103
0000e0 a1 5a 33 bd 21 ce 00 3f 79 1f fd 3c 8d da cf bd
       -0.043787602 0.5031453 0.030898796 -0.10149107
0000f0 ab 08 1b 3e 9d ae 8c 3d e9 51 b2 3e 1e af 1a be
       0.15140025 0.06869242 0.34828117 -0.15105864
000100 84 ee 3c bd fb f0 a5 be 5a 35 10 3f 8d 3d 6a 3e
       -0.046125904 -0.32410416 0.5633141 0.22875042
000110 b1 bd 1b 3e 26 56 dc bd b3 20 01 be 86 d4 b3 3d
       0.1520908 -0.10758619 -0.1261013 0.0878077
000120 d8 6e 1a 3e 59 13 24 bd 8b 04 bd be 7f 83 94 3e
       0.15081346 -0.040057514 -0.3691753 0.29006574
000130 54 7c 4b bd 7f fc 8e 3d 24 26 96 3c c8 ea e9 3e
       -0.049679115 0.069817536 0.018328734 0.45686936
000140 43 b3 83 bd 39 06 d4 bc 86 1e 06 3e 5c 36 19 bf
       -0.06430676 -0.025881873 0.13097581 -0.5984857
000150 41 9e 26 3f 62 53 88 3e 13 11 cd 3d e1 f7 b5 bc
       0.65085226 0.26626116 0.10013022 -0.022212924
000160 e7 54 8c 3d b9 0d b1 3e ed 5b 52 be 3f e2 87 3e
       0.06852131 0.34580782 -0.2054288 0.265398
000170 11 2e 37 3e e5 42 f2 bd ae 8f e9 be d9 4c f1 3d
       0.17888667 -0.11829165 -0.4561743 0.11782236
000180 84 bb 55 be 3c 99 ea 3b 78 51 96 3c ff a5 9e 3e
       -0.20872313 0.0071593802 0.018349394 0.3098602
000190 63 ac 42 3c c8 eb 30 3e e4 ca 9c bd 54 04 91 bd
       0.0118819205 0.17277443 -0.07655886 -0.07080904
0001a0 f7 a2 85 bd cb 4e 56 3d b1 fb 24 bf 58 8d 29 3d
       -0.06525224 0.052321237 -0.6444655 0.04139456
0001b0 0d 2a 0e 3d 92 1a 5c be 06 ef 61 be 8d f8 39 be
       0.03470807 -0.21494511 -0.22063836 -0.18161221
0001c0 b0 cf 92 bd 04 45 a5 3d c3 cb 28 bd 97 84 e2 3e
       -0.071685195 0.08069804 -0.041209947 0.44241783
0001d0 0c b1 69 3e 2b 0c 5b bc 18 d2 cb bc 26 6f 09 bb
       0.22821444 -0.0133696 -0.024880454 -0.002097079
0001e0 d4 50 33 3c 8b ad 21 bc 1f b8 bf 3c 31 6e 05 bd
       0.010944564 -0.009868036 0.023403225 -0.03257579
0001f0 55 7c 33 bc e4 a8 f4 be e0 eb 00 3d ed da ef bd
       -0.010954936 -0.47785103 0.031474948 -0.11711679
000200 b0 62 58 bd 5a 42 05 3d 9a 6e 07 3f f2 d7 15 3e
       -0.05282849 0.03253398 0.5290314 0.14633158
000210 62 f9 20 bd 5d 34 c1 be 08 3e 26 3d e2 4e 90 bc
       -0.03930033 -0.37735263 0.0405865 -0.01761574
000220 46 78 65 3b b0 33 92 ba 7e 5c 90 3a bb c5 4f 3b
       0.0035014316 -0.001115432 0.0011013893 0.003170355
000230 9b 1e d8 be ec 2c 53 3e d3 c1 85 3c ae f9 8d 3b
       -0.4221085 0.20622605 0.016327774 0.0043327427
000240 0c 9f 91 bc 28 7f 51 3d 77 85 58 3c 9c fe 0e 3c
       -0.017776035 0.051146656 0.013215414 0.008727696
000250 e5 9f f2 ba 2b 75 bf ba 8c 5e 15 3a ca 2c c6 bb
       -0.0018510787 -0.0014607062 0.00056979875 -0.0060478197
000260 0f 8c 99 be 2f 77 d8 3d 42 fd 1d 3c 63 92 d7 bb
       -0.2998967 0.105696075 0.009642901 -0.00657873
000270 66 84 32 bd 6a 1d 5c 3c f2 a1 3c 3c a7 aa c1 bc
       -0.043583296 0.013434747 0.01151322 -0.023640944
000280 02 b0 ee be 78 f2 3e 3f 61 0e 80 3d 9d 3d 8d bd
       -0.46618658 0.7458873 0.062527426 -0.068965174
000290 d0 73 63 ba c8 f6 c1 3b 0c 98 45 3a 56 54 b0 ba
       -0.000867662 0.005919311 0.00075376104 -0.0013452868
0002a0 eb 28 1a 3a b5 07 23 be b0 94 1a 3f ec 5e e9 3d
       0.0005880731 -0.15920909 0.6038313 0.11395058
0002b0 db 91 9f 3c bd 99 8a 3b 45 6d 8a bd c8 d0 5e 3c
       0.019478729 0.004229753 -0.06759123 0.013599582
0002c0 ad 00 9f bb 4a e8 cc bb a7 09 06 3f 60 fe 2a bf
       -0.0048523755 -0.006253277 0.5235848 -0.66794395
0002d0 ad 0f 3f 3d c4 ae 89 be a9 c0 88 3c 74 c8 77 bd
       0.04664581 -0.26891148 0.01669343 -0.0604939
0002e0 26 0f 17 bd 39 bb af 3b 51 c3 9c 3b 42 e4 bf be
       -0.03687968 0.005362895 0.0047840257 -0.37478834
0002f0 49 26 93 be 30 42 b5 3d d0 8c f4 bc 20 9c 48 3d
       -0.28740147 0.08850515 -0.0298523 0.048977017
000300 5d f8 65 be 40 74 b1 3e 4f 43 1c 3d 9c 86 00 3d
       -0.22458024 0.34659004 0.038150128 0.031378374
000310 67 83 9c bd eb 07 21 3e 96 bf 47 3d b7 2b 63 bd
       -0.076422505 0.15725677 0.048766695 -0.05546161
000320 55 cc 3f 3f 0d 12 2a 3d 49 27 33 bd ec 21 7e 3c
       0.7492116 0.04152112 -0.043738637 0.015511017
000330 68 60 98 3d 8d 47 ea 3d 4a 5c 01 bd 2d 46 c0 3d
       0.07440263 0.114394285 -0.031582154 0.09388385
000340 b6 43 d8 bd 6d f1 e8 3e b7 07 bd be a3 5f 40 3d
       -0.1055979 0.45496693 -0.36919948 0.046966206
000350 ce a0 7c 3d 84 24 05 be 8f b6 4b bb ca 86 52 be
       0.061676793 -0.13002211 -0.0031084155 -0.2055923
000360 0b 05 26 bd 7d 4a a3 3b 2d a2 10 bc 03 ef e2 3c
       -0.040532153 0.004983245 -0.008827728 0.02770186
000370 7c 26 cc bc 3a e7 2e be 0c 08 e8 3e f3 17 60 3d
       -0.024920695 -0.17080393 0.4531864 0.05471034
000380 67 af 03 3d 67 1d 7a bc 5b fa 5c 3e 76 cd 5a bc
       0.0321497 -0.015265799 0.21579878 -0.01335465
000390 bd 04 46 3c e3 84 d2 bd f4 b1 14 be 0e 8a 34 3c
       0.012086091 -0.102792524 -0.14521009 0.011019243
0003a0 f4 81 d1 bd 7a 69 85 3e ca f4 ef be 42 cc da bd
       -0.10229865 0.26057035 -0.46866447 -0.1068349
0003b0 5d 4d d2 3d 0b cc 1d 3f 31 af 54 3e 10 37 17 3e
       0.10268662 0.6163947 0.20769955 0.14767098
0003c0 34 8f 50 bd 7d 46 4e 3e 64 1b 11 3d 99 81 1a 3d
       -0.05091782 0.20144077 0.035426512 0.03772125
0003d0 82 13 00 be 19 fb 50 3d 3f 4f c8 be 18 c1 3c 3e
       -0.12507442 0.051020715 -0.3912296 0.18433034
0003e0 97 69 86 be 87 cf 9d 3c 88 8e 7b 3e 46 9a 6c 3d
       -0.26252434 0.019263996 0.2456609 0.057764314
0003f0 c8 a6 75 bd 64 88 bf 3d 5b f5 31 bf a2 b3 10 bf
       -0.059973508 0.09352186 -0.6951501 -0.565241

model.0.bias f4 [128]
000000 2d f0 a6 bc 2a a7 43 be f1 72 03 be ec 3d 82 be
       -0.020378197 -0.19106737 -0.12836815 -0.25437868
000010 81 4a c0 bd 8c 11 24 be d0 8e 3e be 06 55 5e 3d
       -0.093892105 -0.16022319 -0.18609166 0.054280303
000020 31 d8 c9 bd 4c 0e bd bd 8d 66 9e 3c 0b 5b 34 be
       -0.09855688 -0.092312425 0.01933601 -0.17612855
000030 b7 4c 3d bd c9 e2 7f bc 76 61 35 bd 10 0b a3 be
       -0.04621574 -0.015618035 -0.0442824 -0.31844378
000040 0f e2 38 3d e8 17 5a be f5 6d ea bd f1 48 57 be
       0.04513746 -0.21298182 -0.11446754 -0.21023919
000050 d9 39 06 be f6 e1 09 3c 18 da d0 bd 6e 09 2e 3d
       -0.13108005 0.00841569 -0.10197848 0.04248946
000060 17 f4 ae be 21 d0 7b be 17 e3 41 bd 46 57 c2 bd
       -0.341706 -0.24591114 -0.04733571 -0.09489302
000070 c7 81 b3 bd 3d ef 07 be a1 48 2d be 40 3f 1c be
       -0.087649874 -0.13274856 -0.16922237 -0.15258503
000080 27 eb 84 be ba 45 3d be f8 7a f5 bc 07 cd a1 bd
       -0.25960657 -0.1848363 -0.029965863 -0.07900434
000090 a5 e5 f7 3c cf 99 da bd bf 91 34 be 8e 65 1a be
       0.03026087 -0.10673868 -0.17633723 -0.15077803
0000a0 a1 db 4a be 51 40 7e bd d9 c4 6b be 0a f2 bd bd
       -0.19810344 -0.062073056 -0.2302431 -0.09274681
0000b0 4f d6 c2 bd 08 62 e3 bd 12 c5 04 be d1 5e 4c bd
       -0.09513532 -0.11102682 -0.12965801 -0.04989511
0000c0 76 68 43 be df 48 12 be fe 7b eb bd ea 5e fa bd
       -0.19082817 -0.1428561 -0.11498259 -0.12225135
0000d0 ee b0 2d be aa 67 75 be 74 ca 98 be d6 99 85 be
       -0.16962025 -0.23965326 -0.2984196 -0.2609393
0000e0 0c e4 00 be ca 56 b4 bd 73 e5 48 be 8d a1 5a 3d
       -0.12586993 -0.08805616 -0.19618778 0.053376723
0000f0 73 97 6f bd 15 35 ab be 9f ba 12 be 9d 91 3d be
       -0.058494043 -0.33438936 -0.14329003 -0.18512578
000100 dd ab 4b be be d3 22 be f6 12 90 bd 83 b6 92 bc
       -0.1988978 -0.15901086 -0.070348665 -0.017909294
000110 7e 0e 3c 3d 50 77 15 be 4f 9c 0f bd bb 9a 81 be
       0.04591226 -0.14596295 -0.035061177 -0.25313362
000120 de 9d 4e be 08 8e 7e be c7 f0 b5 bd 2b b1 74 be
       -0.20177409 -0.24858868 -0.08883815 -0.23895709
000130 e6 56 c9 3d 09 34 ee bd 6d c7 c8 be 11 cb 19 be
       0.09831028 -0.11631019 -0.3921465 -0.1501887
000140 ac 9c cb bd 07 c7 64 be 11 08 fa bd a2 c9 2f be
       -0.09941992 -0.22341548 -0.1220857 -0.1716676
000150 a3 6a 14 be e0 ae 4b be c5 6d d1 bd 8a 80 9b be
       -0.14493804 -0.19890928 -0.10226015 -0.30371505
000160 7a a5 a5 be e4 32 07 bc f1 cd 34 be 07 64 46 be
       -0.3235281 -0.008251879 -0.17656685 -0.19374095
000170 86 49 18 3e 82 54 0b be 62 00 39 be 9a 53 53 be
       0.14871797 -0.13606456 -0.18066552 -0.2063736
000180 71 37 2b bc b8 73 aa bd 29 29 1f bd 8c 2a e5 bd
       -0.01045023 -0.08322853 -0.038857613 -0.11189756
000190 35 5d 88 3d 69 29 53 be dd 7c 00 be 2b 1d 4c be
       0.06658403 -0.20621265 -0.12547632 -0.19933002
0001a0 bd 0b 99 be ff db af bd 97 a2 fd bd fd 33 3c be
       -0.29891768 -0.08586883 -0.12384527 -0.18379207
0001b0 03 90 bf bc ed 2b bd bb 2a 39 b4 be ea 6d 8b bd
       -0.0233841 -0.0057730586 -0.35199863 -0.06808074
0001c0 c1 92 27 be 15 4d 1f be 38 e9 05 3d ef fc 13 be
       -0.16364576 -0.15556748 0.032693118 -0.14451955
0001d0 5f 3e 72 be d7 30 c1 3d f1 03 fd bd 00 02 c1 bc
       -0.23656605 0.094331436 -0.123542674 -0.023560524
0001e0 ed a4 3f be b9 28 df 3d fd bc 92 bc bb d4 7b be
       -0.18715258 0.10896439 -0.017912382 -0.24592869
0001f0 37 63 36 be ec 83 14 be 92 1d 76 be 32 77 6b be
       -0.17811285 -0.14503449 -0.24034718 -0.22994688

model.3.weight f4 [128, 128]
000000 6a 00 24 bd 4a 9f 95 bd a4 8e 08 bc 8a d7 5f be
       -0.040039457 -0.073057726 -0.008334789 -0.21859565
000010 6f ba 99 3c ac 41 02 3d 4c 5b 32 3d cd 46 5c be
       0.018765656 0.03180091 0.0435441 -0.21511383
000020 44 86 19 be 6f b4 ec 3d 9d fa 47 3d 52 9b 7b be
       -0.14992625 0.115578525 0.048822988 -0.24570969
000030 8f 73 f4 3d fb ea aa bb 39 7e 44 be 90 21 14 3d
       0.119361036 -0.005216 -0.19188775 0.03616482
000040 23 74 88 bc 8d 46 34 3c ef 91 a6 3c 28 06 f4 3c
       -0.01665694 0.011003149 0.020333258 0.029788092
000050 12 e1 8f 3d 8e e3 bc 3d 88 c4 af 3d 91 00 4c bd
       0.07025351 0.0922309 0.08582407 -0.049805228
000060 54 f1 02 3e c2 4a 50 bc 4b f4 13 bd 57 73 5e be
       0.12787372 -0.012713136 -0.036121648 -0.21723686
000070 f3 e7 10 3b 8e 18 1d bc 20 d2 a3 bd 76 d6 25 3d
       0.0022110909 -0.009588374 -0.079990625 0.04048773
000080 19 a4 20 be ba 03 40 bd 74 e1 78 bd 8b 44 92 bd
       -0.15687598 -0.046878554 -0.060761884 -0.0714198
000090 34 e4 a7 3d df 2c e6 3d 1f d3 aa bc 62 75 bf be
       0.08197823 0.11239027 -0.020852624 -0.37394243
0000a0 c8 51 b9 be 27 46 20 3d c4 d8 39 3d 1c 14 8b be
       -0.36195207 0.039129402 0.04537274 -0.2716378
0000b0 4a 00 af bd 49 bb d2 3d 7f 15 d6 3c f7 e2 32 3d
       -0.08544977 0.10289628 0.026133297 0.04367348
0000c0 2e 8e e7 3b 7b 9b d9 3d 3d f0 35 bc b6 a6 1e bc
       0.0070665097 0.10625359 -0.011104641 -0.009683302
0000d0 a8 72 14 be 5e 49 ef bd 3a 19 02 3d 1f 8d d6 3b
       -0.14496863 -0.116839156 0.03176234 0.0065475847
0000e0 a4 93 e3 bd ef 34 99 3d b7 2b f7 bb f6 89 1a 3e
       -0.111121446 0.074807994 -0.007543053 0.1509169
0000f0 2b 8a 0e be 50 55 c9 bc aa 69 b9 bd df 5a ae 3a
       -0.13919894 -0.024576813 -0.09053357 0.0013302228
000100 90 95 9d bd f7 b4 63 be f5 9e a3 bc 4a cc ce bc
       -0.076945424 -0.22237001 -0.019973258 -0.025243897
000110 80 5c a9 3c e3 d0 5b 3d 6c 9a e1 3c 74 68 8b 3d
       0.02067399 0.053666007 0.027539454 0.06807032
000120 c9 e4 d3 bd 00 f4 0d be 5b 32 80 3d 28 fd 12 be
       -0.10346372 -0.1386261 0.062596045 -0.14354384
000130 20 93 0b bf 33 d7 9e 3d f5 72 aa 3d 34 8f 6a 3d
       -0.5452137 0.0775589 0.083227076 0.057265475
000140 51 8c 84 3d f9 31 03 3e ba 8b 37 3d 30 a0 83 3d
       0.06472076 0.12812032 0.044810988 0.06427038
000150 7a f3 2a 3d 02 a8 46 bd 3d d3 5a bd cb c5 1d be
       0.041736104 -0.04850007 -0.05342411 -0.15407483
000160 8d 82 90 3c 27 cc a1 bc c0 57 65 3c 7d 33 75 3d
       0.017640376 -0.019750668 0.013997972 0.059863556
000170 8e 1d 09 be 4a 53 09 3d 52 f7 99 3d 4f ac cc bd
       -0.1339018 0.033526696 0.07517876 -0.09993803
000180 6e 7c 20 3d 5f 56 3a 3d b9 12 03 bc 02 9b eb 3d
       0.039181165 0.045492526 -0.008000069 0.11504175
000190 f9 4f 00 3d bf df b6 3d 4e 96 9f bd 49 69 04 3d
       0.031326268 0.08929395 -0.0779234 0.03232697
0001a0 8f fb e0 3d bb dc 9a bd 95 f6 d5 3c fc 4b e1 3c
       0.10985481 -0.07561632 0.026118556 0.027502052
0001b0 de 98 f8 bd 6c 43 aa bc 1a 90 0f 3e ec 9e 0a be
       -0.12138532 -0.020784102 0.14019814 -0.13537186
0001c0 71 a7 fc 3d 0e da fe 3d 54 4e c5 3d 7c 3f 9b bd
       0.123366244 0.124439344 0.096340805 -0.07580468
0001d0 6a 96 9c bd 82 27 8b bd 09 7a 55 bd 12 37 0d bf
       -0.07645877 -0.06794645 -0.052118335 -0.55162156
0001e0 45 dd 13 3e 75 71 d9 3d c0 e6 87 3d 40 22 2f 3e
       0.14439876 0.10617343 0.06635809 0.17102909
0001f0 7b e3 68 3d 6d 3a da 3d 3a c2 7a 3d e7 61 e7 bb
       0.056857567 0.10655675 0.061220385 -0.0070612314
000200 14 a2 da bd a9 c6 f3 3d 33 c0 c2 3d 9a 64 92 3d
       -0.10675445 0.11903126 0.09509315 0.071480945
000210 f6 24 c4 3d 13 f2 85 bd 34 4c b9 3d 43 7b 94 bd
       0.09577362 -0.065403126 0.09047738 -0.07250073
000220 58 8f 27 3d 27 89 3b 3c 81 ee 1f 3d bb 8d 04 3d
       0.040908188 0.011446274 0.039045814 0.032361727
000230 59 c9 f4 bd f1 4b dd 3d af 04 03 bd 15 f4 d7 bd
       -0.119524665 0.108055 -0.03198689 -0.10544602
000240 3b c4 05 bc 79 51 5c bc 49 40 80 3c 44 4c b8 3d
       -0.008164461 -0.013447159 0.015655654 0.089989215
000250 71 8a 62 bc a4 16 9f 3c aa 14 9f bd 8c 24 9c bc
       -0.013826952 0.019419976 -0.07767613 -0.019060396
000260 40 f2 0d 3d 3f 65 bb 3d b4 6a 34 3d c9 3b fb 3a
       0.034654856 0.091501705 0.044047073 0.0019167598
000270 77 c6 21 3d 2e f3 e3 bd 2b a1 30 be ed aa 8c 3d
       0.03949591 -0.11130367 -0.1724898 0.06868539
000280 42 1e b0 3d ae 1f 06 3e ce 17 2c be 2a b9 66 3d
       0.08599521 0.13098022 -0.16805956 0.05632893
000290 f5 42 82 3b 20 1a 01 3d ea 59 fb 3c 56 ba a6 bd
       0.003975267 0.031519055 0.030682523 -0.081410095
0002a0 91 8c 0d 3e de 42 dd 3c d8 f3 fa 3d d7 77 42 bd
       0.13823153 0.027009424 0.12253541 -0.04747757
0002b0 b8 49 27 be d3 17 f5 3d 01 1a 8e bb 76 52 82 bd
       -0.16336715 0.11967435 -0.004336596 -0.063633844
0002c0 43 1c 44 3e 43 20 07 3d 19 c6 4a 3d f5 7b b0 bd
       0.19151406 0.03298975 0.049505327 -0.08617393
0002d0 7c 1d dc bd ea 47 11 3d dc d3 b7 3c 87 f3 a0 bb
       -0.10747811 0.035468973 0.02243989 -0.004911843
0002e0 4c b2 ce bc bf 32 eb bc 3b 37 b6 bc 59 cd 30 3d
       -0.025231503 -0.028710721 -0.022243133 0.043164585
0002f0 c5 e6 6e bc 0b d8 46 3e da 31 88 bc d2 1c d8 bd
       -0.014581387 0.19418351 -0.016625334 -0.10552372
000300 49 b8 8a 3d e7 c4 86 b9 4a 66 e0 3d f8 32 72 bd
       0.06773431 -0.00025705175 0.1095701 -0.05913064
000310 ec b5 18 3d 45 9a b5 3c 69 bb b7 bc db fe 82 bc
       0.03728287 0.022168288 -0.022428231 -0.015990665
000320 a8 5b d8 bb 4c be d3 be e9 7d a8 bd 15 54 bd 3d
       -0.006602723 -0.41356122 -0.082271405 0.09244553
000330 9a e5 bd 3d 6c d4 cc 3d 50 e7 0c be b2 e8 3c 3e
       0.09272309 0.10001454 -0.13760114 0.18448141
000340 b6 f3 d5 3c 2f f3 a3 3c 1e 50 54 bb a5 3c 67 bd
       0.026117187 0.02001342 -0.0032396386 -0.05645432
000350 42 51 e6 3c 83 ec 14 3e c7 51 d6 3d f5 38 85 be
       0.028114919 0.14543347 0.104648165 -0.26020017
000360 3d e5 09 3f bc fd 5a bc 48 0b 64 bd 0f fa f7 bd
       0.53865415 -0.013366159 -0.05567482 -0.12108242
000370 01 f9 12 3d 7c 28 11 bd d4 dc 7f bc 1c 00 d7 bd
       0.035882 -0.035439 -0.015616614 -0.10498068
000380 25 91 a0 3c dd 2e b7 3a 14 ff 21 3e bf b7 d4 bd
       0.01960046 0.0013975758 0.15819961 -0.10386609
000390 af 3f 96 be 8c d2 b6 bd 4c e2 f7 3d 21 13 48 3e
       -0.29345462 -0.089268774 0.121037096 0.19538547
0003a0 f8 3b b0 3c 49 5b 3a be 5d df 10 be e1 a7 d2 3c
       0.02151297 -0.18198885 -0.14147706 0.025714817
0003b0 3a ed 53 3c 5f f7 92 bc 3f 75 6d 3e 8d 72 32 3d
       0.012934977 -0.017940221 0.23189257 0.043566275
0003c0 40 30 66 bb 71 df 36 be 22 eb fc 3a 7d 24 24 3e
       -0.0035123974 -0.17858674 0.0019296149 0.16029544
0003d0 73 b5 a0 bc 00 2b c9 bd ee 30 3e bd 78 53 c8 3d
       -0.019617772 -0.09822655 -0.04643338 0.097815454
0003e0 c5 88 b9 3c 4b fa e3 bd 50 02 05 bd 32 46 fb bd
       0.022648225 -0.11131724 -0.03247291 -0.12269248
0003f0 c2 f1 89 3d b4 29 a5 3c 1e 38 e7 bc 76 dd 8a 3d
       0.06735565 0.020161487 -0.028225001 0.067805216

model.3.bias f4 [128]
000000 06 8d 3e bd 27 16 da bd 77 2c 37 bd d6 0a 0d be
       -0.04652121 -0.106487565 -0.04472014 -0.13773665
000010 7c e5 b1 bd dc 6a 60 bd 5f 43 da bc 66 d6 15 be
       -0.08686349 -0.05478941 -0.026643453 -0.14632568
000020 58 4b ae bd 68 7c a8 bd 6b 6b 17 be 1b 3d 4f bd
       -0.085104644 -0.082268536 -0.1478707 -0.050595384
000030 ef cb fd bd ba 64 80 bd 60 96 08 be 15 df f1 bd
       -0.12392413 -0.06269212 -0.13338614 -0.11810128
000040 34 bb b4 bd ad a8 5a bd 7b f5 d3 bd 26 f5 59 bd
       -0.08824769 -0.053383518 -0.10349556 -0.053212307
000050 09 87 90 bd 7f df 09 be 21 2c c9 bc 63 28 86 bd
       -0.07057006 -0.13464163 -0.024557175 -0.06550672
000060 ce a8 d2 bd e2 b8 6a bd 84 0a d7 bd 0b 39 ee bd
       -0.10286103 -0.057305224 -0.105000526 -0.11631974
000070 06 a7 f9 bc 0b 36 a7 bc dc bc bc bd bd e1 8c bd
       -0.03047515 -0.020411512 -0.092157096 -0.06878994
000080 5a 04 89 bd 78 52 b7 bd 39 ae a4 bd 41 3f ef bd
       -0.06690283 -0.089512765 -0.08041043 -0.116819866
000090 cc a1 60 bd 12 75 00 be dc 11 7e bd e1 4d 88 bd
       -0.0548418 -0.12544659 -0.06202875 -0.06655479
0000a0 77 42 c7 bd 32 42 a9 bd 2a ca 4d bd fc fa b3 bd
       -0.09729474 -0.08264579 -0.050241627 -0.08788106
0000b0 22 75 b4 bd ae 8f 73 bd 8f 63 8a bd d5 b0 a4 bd
       -0.08811404 -0.059463196 -0.067572705 -0.080415405
0000c0 07 ad 88 bd 64 89 59 bd fe 84 87 bd da 64 f5 bd
       -0.06673627 -0.05310954 -0.06617163 -0.119821265
0000d0 dc dc c1 bc 35 ef 8b bd 42 59 1b be 4b af 85 bd
       -0.023664884 -0.068327345 -0.15170768 -0.06527575
0000e0 29 41 cb bd 82 62 d0 bd 1b 16 9f bd 1d 1e a2 bd
       -0.09924538 -0.10175039 -0.07767888 -0.079159
0000f0 60 67 e5 bd 82 da 45 be fb d9 fe bd 39 3f ea bd
       -0.11201358 -0.19321635 -0.1244392 -0.1143784
000100 f6 89 8e bd 34 54 68 bd f7 c7 13 bd 8b 70 20 be
       -0.06959908 -0.056720927 -0.036079373 -0.15667932
000110 b2 51 33 be d0 69 0b be da b0 52 bd 1d 0c 30 bd
       -0.17511633 -0.13614583 -0.05143819 -0.042980302
000120 e6 cc 1f bd 83 9e 09 bc 09 3f ed bd cc 7a aa bd
       -0.039013766 -0.008399609 -0.115842886 -0.08324203
000130 14 59 c6 bd 62 1a cc bd 50 fd a2 bd 23 1e 79 bd
       -0.09684959 -0.099659696 -0.07958472 -0.060819756
000140 eb 5d cb bd e3 fa 33 bd da 06 a0 bd bb 01 f4 bd
       -0.09930023 -0.043940436 -0.07813807 -0.119143926
000150 0e ba aa bd 68 3d b6 bd cc 2e d6 bd 0d a4 ae bd
       -0.08336268 -0.08898431 -0.104581445 -0.08527384
000160 04 2c 10 be ee 01 d2 bd d4 97 d7 bd 8d 3f f5 bd
       -0.1407929 -0.10254274 -0.10527006 -0.11975012
000170 c6 07 9e bd a9 f4 0f be f4 cc b1 bd c8 9e 62 bd
       -0.077163264 -0.14058174 -0.0868167 -0.055327207
000180 74 25 1c be 32 8d ac bd 37 e9 cb bd 20 60 47 bd
       -0.15248662 -0.08425368 -0.099565916 -0.048675656
000190 79 ce 88 bd 22 8b ec bd ec 43 dc bd 94 e5 9b bd
       -0.066800065 -0.11549975 -0.107551426 -0.07612148
0001a0 78 91 b4 bd 43 ef a0 bd f9 2b b2 bd ff 35 25 be
       -0.088168085 -0.078581356 -0.08699793 -0.16133879
0001b0 a2 8a 63 bd 30 c0 bc bd 29 fe 82 bd 50 bf 46 bd
       -0.055552132 -0.09216344 -0.063961335 -0.048522294
0001c0 63 7b aa bd 3f 4f 25 be ec e1 04 be de 88 9f bd
       -0.083243154 -0.16143511 -0.12976807 -0.07789777
0001d0 c2 69 e9 bd cc 45 8b bd 73 1f d6 bc 7b c8 b1 bd
       -0.11397125 -0.06800422 -0.026138043 -0.08680817
0001e0 6f 1c 89 bd 9e 03 d9 bd 30 c8 d7 3b 0f e2 b2 bd
       -0.066948764 -0.10596393 0.0065851435 -0.087345235
0001f0 d4 af 40 bd ae 65 ad bd ad 8e fa bd 3d b4 0a bd
       -0.047042683 -0.084666595 -0.122342445 -0.033863295

model.6.weight f4 [128, 128]
000000 7b e1 f7 3d 2a bd 08 be 8f cb 00 3e 96 ee 19 3e
       0.12103554 -0.1335341 0.12577651 0.1503242
000010 cb 05 03 be da 5b 05 bd 3f a3 06 3e f9 8e d1 bd
       -0.12795179 -0.0325583 0.13148211 -0.10232348
000020 01 27 28 3b 4f f3 28 3e 07 64 b7 3d b6 70 c4 bd
       0.0025658014 0.16499065 0.089546256 -0.095918104
000030 a4 e0 14 3d 6b 03 a1 bd 4a ca 5d 3c 09 9d 40 3c
       0.036347046 -0.0786198 0.013536999 0.01175619
000040 e6 70 0b 3e 05 0f 45 bd ce 9b 88 3b a5 86 8a bd
       0.13617286 -0.048110027 0.004168964 -0.06763963
000050 ba f7 1e 3e ed 84 15 3e 1e 9d b4 3d ec 58 e6 bc
       0.15524188 0.14601488 0.0881903 -0.028118573
000060 6c 6d 8e bc d8 48 b5 bc ea 35 bd bd 91 80 e9 bc
       -0.01738616 -0.022129461 -0.09238799 -0.028503688
000070 13 68 66 bd 6b a4 ec 3d 4a 9f 40 3d 60 53 41 3d
       -0.056251597 0.11554798 0.04702691 0.047198653
000080 02 15 1e 3e 8f 35 b2 bd b0 0b b6 3a 1d d8 15 3e
       0.15437701 -0.08701622 0.0013888981 0.14633222
000090 71 f9 c9 3d f6 08 90 3d 24 fa 02 be a7 55 ac bd
       0.0986203 0.07032959 -0.12790734 -0.084147744
0000a0 b1 3c 47 bd 45 23 9e bd ff ab 23 3d c2 bd 0d bd
       -0.048641864 -0.07721571 0.03995895 -0.034604795
0000b0 cd 14 d5 bd 48 70 aa bb 71 c6 90 bd f5 c1 4b 3d
       -0.10404358 -0.0052013732 -0.070691 0.04974552
0000c0 7a dd e0 3c 1a b6 c6 3d b3 17 75 3d ae 0e a8 bd
       0.027449358 0.09702702 0.059837054 -0.08205925
0000d0 40 a6 29 3c f7 fd 88 3c eb aa 0c 3c 13 73 d9 3d
       0.0103545785 0.016722662 0.008585672 0.10617652
0000e0 60 b9 ee bb 12 1a 98 bd e2 26 e6 3d 3e 28 4d 3e
       -0.007285282 -0.074268475 0.11237885 0.20034882
0000f0 1e ee c2 bd de 24 4c 3d 48 84 11 3e 02 a2 3b be
       -0.095180735 0.049839847 0.14210618 -0.1832352
000100 0b b0 61 bd 39 8b 87 3d 02 bd 0d 3e 7a d6 f7 3d
       -0.05509953 0.066183515 0.13841632 0.12101455
000110 29 82 04 3d fb 93 d7 bd 21 55 01 3c 6c 0d 12 3e
       0.032350693 -0.10526272 0.0078938315 0.14262933
000120 d0 90 6f bd 99 57 1f 3e 00 22 8f bd 00 d5 5e bd
       -0.058487713 0.1556076 -0.06988907 -0.05440235
000130 a3 57 74 bd 2a 0b 3b bd 9d b1 76 bd 5e ad 9e 3d
       -0.05965389 -0.045664944 -0.06022798 0.07747911
000140 c8 dc 25 3e 9a 31 8c bd a8 06 35 3e 2b 49 ff bd
       0.16197503 -0.06845398 0.1767832 -0.124651276
000150 61 22 a3 3d e5 4f 0d 3e ca 28 99 bc e9 41 8d 3d
       0.07965542 0.13800009 -0.018696208 0.06897337
000160 1e e6 0a 3e 4c 55 0d 3d 55 3b 68 3b b6 70 c9 bd
       0.13564345 0.034505174 0.0035435755 -0.09835951
000170 74 57 e3 bd 4f 97 0f 3e 84 bd 09 be f1 41 45 bd
       -0.11100665 0.14022563 -0.134512 -0.04815859
000180 8c bd d6 3c d8 b6 a0 bb 5a 79 c5 3d 37 1b e6 3c
       0.02621343 -0.004904609 0.096422866 0.028089149
000190 ff 2c df bc bc 94 ea 3d d9 fd ef bd be af 02 3e
       -0.027243135 0.1145415 -0.117183395 0.12762353
0001a0 b7 f8 14 be e8 d6 3d bd 92 10 9f bd d6 85 69 3c
       -0.14548002 -0.04634753 -0.077668324 0.0142531
0001b0 2a 34 db 3b cb ef 69 bd 7b aa 10 be 77 48 11 3e
       0.006689568 -0.05711345 -0.14127533 0.141878
0001c0 98 87 42 3d 2c b8 36 bd fe c6 0b 3e 24 da 0b 3e
       0.047492594 -0.044609234 0.13650128 0.13657433
0001d0 96 e9 cd 3d dd 89 61 bd 76 05 15 3e b0 58 c4 3d
       0.100543186 -0.055063117 0.14552864 0.09587228
0001e0 89 74 20 be 32 c6 a3 3b d5 3d 59 be 6e 0c b7 bc
       -0.15669455 0.004997992 -0.21214993 -0.022344794
0001f0 a8 a7 78 bd 00 a0 fa bd d8 9b 1b be 93 8a 45 3d
       -0.060706764 -0.12237549 -0.15196168 0.048227858
000200 eb 7c 44 3d 37 84 42 3d a6 75 f9 bc 0b 8c 32 3d
       0.047970694 0.04748937 -0.030451607 0.043590587
000210 d9 5c 99 3c e8 11 63 bc ff 2d 25 3c 69 f8 ea 3c
       0.018721031 -0.01385925 0.010081767 0.028682904
000220 b1 48 33 bd bb 22 08 bd 8f fe 19 bd b5 3f bd 3d
       -0.043770496 -0.033236247 -0.03759628 0.09240667
000230 6b 69 16 bc ef 0a b9 3c 37 3c 5e 3c ed 8e f3 bd
       -0.009180407 0.022588221 0.013564161 -0.11892495
000240 a9 7a c6 3b dc bf c2 3d ff 5b 1a bd e5 4d bf 3d
       0.0060571027 0.095092505 -0.03768539 0.09341029
000250 ca d7 b6 bd 2c 71 08 bd b2 76 9f bc 40 78 80 3d
       -0.08927877 -0.033311054 -0.019465778 0.06272936
000260 18 34 3a 3c 23 93 a6 bd fc 34 40 bd e1 e9 27 ba
       0.011364959 -0.08133533 -0.04692553 -0.0006405395
000270 47 3a c3 bd e2 72 e8 bc 00 51 1c bc 41 ed d9 bd
       -0.095326 -0.028375093 -0.009540796 -0.10640956
000280 f5 f7 fc bd a5 d3 1a bd 84 d1 8d ba f1 8b 5d bd
       -0.123519816 -0.037799496 -0.0010819887 -0.054088537
000290 18 b0 07 3e 06 59 ca 3b 65 d9 a0 bd c4 47 2e 3b
       0.13250768 0.006175163 -0.07853965 0.0026593069
0002a0 96 8e 04 3d c9 c9 37 3c 06 30 0d 3d cd b0 2f 3c
       0.032362543 0.011217543 0.034469627 0.010723305
0002b0 44 19 33 bd ff 06 b6 bc 04 79 9b 38 d3 be 0f 3d
       -0.043725267 -0.022220133 7.413517e-05 0.035094094
0002c0 ff 76 b2 3d a2 a6 68 3d 59 5b 7a 3a 67 c2 e2 bc
       0.08714103 0.05679954 0.0009550355 -0.027680589
0002d0 29 2b 79 bd b6 11 b7 3d e0 2b 90 bd 4b 4a 5c 3d
       -0.060832176 0.08938925 -0.070396185 0.05378179
0002e0 01 b8 ca 3d b1 9e cf 3c 1b 23 7e 3c 5f a4 43 bd
       0.09898377 0.025344225 0.0155112995 -0.04776418
0002f0 65 f7 5e bd 6b 57 59 bd fe 19 6f bd d6 e5 60 3d
       -0.054435153 -0.053061884 -0.058374397 0.05490669
000300 d8 b5 39 3d 14 c7 5c bd 2a 4c 1d bc 20 4b 4c 3b
       0.045339435 -0.053900793 -0.009600678 0.0031172708
000310 78 25 ad bb 57 15 86 3d ce 40 e9 3c a0 81 53 3c
       -0.0052840076 0.06547039 0.028473284 0.012909323
000320 2a 97 d5 bd 92 98 59 3b 86 8e 00 bd f6 93 c2 bc
       -0.10429223 0.0033202511 -0.03138592 -0.023752194
000330 b4 4a 33 bd 3d 22 8e 3d 2f a9 01 bd d0 98 8e bd
       -0.043772414 0.06940124 -0.031655487 -0.069627404
000340 2e 92 06 3c 8f ac 69 3d 31 51 d0 bd 0d 6d 9d bd
       0.008213563 0.05704933 -0.10171736 -0.076868154
000350 04 2f f3 bc 94 51 83 3d 1f 81 95 bd 62 09 78 3c
       -0.029685505 0.06412044 -0.073000185 0.015138956
000360 b7 92 38 3d a2 bf 8e b9 a0 78 fe bd bd 94 b8 bc
       0.045061793 -0.00027227128 -0.12425351 -0.022531861
000370 8c ed cb 3d 86 55 97 bb bb a8 18 bc bf 5c c3 3c
       0.09957418 -0.0046183495 -0.009317572 0.023847936
000380 82 4c 13 bc d7 ea 05 3c 70 05 2f 3b e4 18 97 bc
       -0.008990409 0.008173666 0.0026706122 -0.018444486
000390 85 e1 e7 3b 4e 79 50 3c c2 8c 68 3d 0c 01 22 3d
       0.0070764446 0.012724234 0.056774862 0.03955178
0003a0 d9 48 78 3c 7c 0c 00 bc 53 67 b0 3d 6b 82 06 3d
       0.015154087 -0.0078154765 0.086134575 0.03283922
0003b0 c4 d2 a0 bc 99 23 8b 3d fc 46 83 bc cf a1 4b bc
       -0.01963175 0.06793899 -0.016025059 -0.012428715
0003c0 5c e8 9a bc 26 42 a6 bd e7 27 fe bc 36 a4 31 3d
       -0.018909626 -0.081180856 -0.031024886 0.043369494
0003d0 86 40 43 3d 72 7e 44 3c f4 49 7c bd 5b 74 40 bc
       0.047668956 0.011993038 -0.061593965 -0.011746491
0003e0 37 06 61 3d 69 b3 40 bd bf 2c 47 be 22 8c 6f bc
       0.054937568 -0.0470461 -0.19450663 -0.014620813
0003f0 eb cc b2 3b ff 6c 26 bc d8 06 94 3d 2b 2e d5 bd
       0.005456557 -0.010157823 0.07227868 -0.104091965

model.6.bias f4 [128]
000000 da 2a ab ba 14 50 1c bb e1 7e 26 3d 00 14 73 3d
       -0.0013059035 -0.0023851441 0.040648345 0.059345245
000010 9d dc 91 3d f9 59 b3 bd 00 2c 99 3c 15 31 f7 3c
       0.07122157 -0.08757395 0.018697739 0.030174771
000020 04 18 43 bd c2 8f b7 3c 2a c0 c4 3d 2d d9 da bc
       -0.047630325 0.022407416 0.09606965 -0.026714886
000030 73 4b f1 3c 19 14 dc 3d 8d d3 32 bc 87 09 04 bd
       0.029454922 0.10746021 -0.010914695 -0.03223565
000040 e4 8c e3 3c 6d 1e b3 bc ce 03 0d bd 0a b6 fc bc
       0.027777143 -0.021865094 -0.034427457 -0.030848522
000050 e1 c4 b8 bc e8 cd 7f bd 19 fc a0 3c 8a 26 dc bc
       -0.022554817 -0.062452227 0.01965146 -0.026873846
000060 0f 46 2b 3d 65 93 2c bd b1 3c 10 3d 6d 8e 70 bd
       0.04181486 -0.042132754 0.03521413 -0.058729578
000070 25 ec f4 bc b8 ae 2d bc 1c a9 21 3d a2 63 b6 bc
       -0.029897759 -0.010600738 0.039467916 -0.022264306
000080 5e f9 3b bd 1c 67 f4 3c 31 d7 84 3c 00 19 4c bc
       -0.045892112 0.029834323 0.016215893 -0.012457132
000090 7e 6e 2c bd fc b3 c2 bc d0 bd 05 3d 3a 1b a4 bd
       -0.04209756 -0.023767464 0.032651722 -0.080130056
0000a0 0c 70 16 3d 75 06 d5 bb a1 6b 83 bc 62 b6 ff 3c
       0.03672795 -0.006501014 -0.016042532 0.031214897
0000b0 ec 31 df 3c 34 b7 09 3d e6 7f 5f bd cb a9 8b bb
       0.027245484 0.03362198 -0.054565333 -0.0042621843
0000c0 05 f1 e2 bc 33 85 d8 bd ed 0c 79 3d 93 4a c1 3d
       -0.027702818 -0.10572281 0.060803343 0.09438052
0000d0 a6 ed 53 bd 71 9e d3 3b 54 ed 84 3c 9b 62 7f 3c
       -0.05174031 0.0064580967 0.016226448 0.015587474
0000e0 1c 8f 4a bd 06 64 b1 bc d6 75 ef 3d 31 04 be 3d
       -0.049452886 -0.02165414 0.11692397 0.09278143
0000f0 37 41 36 bc 31 81 fe bc 84 b5 82 3c fa 92 14 bd
       -0.011123947 -0.031067463 0.015955694 -0.03627298
000100 95 22 81 3c f8 e6 84 bc 7a 8a 54 3d e5 56 ca bc
       0.01576356 -0.016223416 0.051889874 -0.024699638
000110 67 87 45 3c 8a b4 25 3d 8a b2 99 bc 1a d3 db 3b
       0.012056208 0.04045538 -0.018761892 0.006708515
000120 e4 a2 fe bc 36 f3 3a bb d1 05 8b bd 7a 02 0f bc
       -0.031083532 -0.0028526313 -0.06788219 -0.008728618
000130 64 5a 02 bd 7a b5 13 3d 54 fd 9a 3c e1 d0 3d bd
       -0.031824484 0.03606174 0.018919624 -0.04634178
000140 87 82 74 3d 34 46 a1 bd cd be 01 bd 01 cc 2b 3d
       0.059694793 -0.07874718 -0.031676102 0.0419426
000150 3b 31 6b bd 74 05 01 bd d4 d7 c1 3c 14 0d 6d bd
       -0.057419997 -0.03149934 0.023662485 -0.0578738
000160 ed 45 25 bd d2 79 4f bd de 6d a5 3d 34 50 01 bd
       -0.04034989 -0.050653286 0.08077596 -0.03157063
000170 97 68 ba 3c eb 5b e7 bb c3 9c b3 3c 49 17 11 bb
       0.02275495 -0.007060518 0.021925336 -0.0022139123
000180 a6 98 9d bc 80 eb c1 3c 20 7d f4 bc 21 a9 03 3d
       -0.019237828 0.023671865 -0.02984482 0.032143716
000190 2c 7d 10 3c d3 2e 94 3d e5 26 b3 3c a9 ac d9 3d
       0.008818906 0.072354935 0.021869132 0.106286354
0001a0 ce d4 77 bb 5a ea 69 3b 92 84 55 3c 0d 15 49 bd
       -0.003781605 0.0035692663 0.0130320955 -0.04909234
0001b0 de 17 ed 3c 17 eb 35 3d 6e 73 2a bd f6 b4 5f bd
       0.028942045 0.044413652 -0.04161399 -0.054615937
0001c0 0c e8 83 3c 3b ed 97 3d 22 51 fe 3c a3 b8 7b 3d
       0.01610186 0.07418295 0.031044547 0.06145538
0001d0 85 9d 1d bb 77 7b 33 bd 39 fd de bc 3e 35 90 bc
       -0.0024050188 -0.043818917 -0.027220355 -0.017603513
0001e0 dd 32 be 3c 22 4b 52 3c ad 25 9a bc e8 5a de 3c
       0.023217613 0.012835296 -0.018816793 0.027142957
0001f0 66 9c c1 3d 4d d9 62 bd f7 5e 86 bd 97 b2 03 3e
       0.09453659 -0.055383015 -0.06561082 0.12861095

model.7.weight f4 [1, 128]
000000 01 d4 91 3a 22 df b5 ba 4f d6 12 3b d3 1c ad ba
       0.0011125804 -0.0013875703 0.002240557 -0.0013207443
000010 c9 f3 2a ba d6 cd d8 3d aa 1f 2f 3a 8f 50 11 bb
       -0.0006521312 0.10586135 0.00066804385 -0.002217326
000020 aa 10 cb ba a7 73 aa 3a 19 ec 02 be 69 ce 08 bc
       -0.0015492637 0.0013004438 -0.12785377 -0.008349993
000030 95 bc 3e 3a a9 42 cf ba cb 65 7b bc e1 2f 54 bd
       0.0007276026 -0.0015812713 -0.015344094 -0.051803473
000040 da fd fc 3a b4 31 b1 ba 2b 3f 87 ba f7 03 3c ba
       0.0019301728 -0.0013518841 -0.0010318508 -0.00071722217
000050 51 26 ad ba a9 8f e4 ba 7d 67 8e 3d a9 3d a9 3c
       -0.0013210272 -0.0017437834 0.069533326 0.020659285
000060 c4 4a 6f ba c6 92 e8 ba 41 1f 30 3b 5d 6f 83 b9
       -0.00091282674 -0.0017743937 0.0026874098 -0.0002506924
000070 f4 4e 15 b9 c6 55 05 bc e6 48 0b ba 7c 1a 0e bb
       -0.0001423916 -0.008138126 -0.0005313292 -0.0021683266
000080 a2 19 d9 3c 4b 99 37 3d c4 fc 72 3a 87 b2 00 bb
       0.02650148 0.044823926 0.00092692324 -0.001963766
000090 f3 a5 f9 39 ca 2c e5 ba 17 58 1f 3b 39 75 67 3d
       0.00047616623 -0.0017484662 0.002431398 0.056508277
0000a0 88 73 2f ba f7 18 c0 3d 66 46 31 bb 17 aa 45 3a
       -0.0006692936 0.09379762 -0.0027050017 0.0007540299
0000b0 69 9f 20 3b ac 65 95 3b b5 70 94 ba 3f 18 ca ba
       0.0024509078 0.0045592394 -0.0011325093 -0.0015418603
0000c0 9a 1f 32 bb a3 a0 1e 3c 81 28 da bd e0 33 8e bd
       -0.002717948 0.0096818535 -0.10652257 -0.06943488
0000d0 46 47 17 ba 96 36 27 3d ad 30 06 3a 3f 01 a0 b8
       -0.00057708134 0.04082354 0.00051189476 -7.6296266e-05
0000e0 25 12 b8 ba d2 21 27 bb f2 b0 33 bc 4f a6 21 bc
       -0.0014043493 -0.0025502336 -0.01096748 -0.009866311
0000f0 fc 97 63 3a db 54 4f bb a9 c8 c7 3a 67 ed 15 bb
       0.000868201 -0.003163627 0.0015242297 -0.0022877099
000100 11 8d 9b ba ad 8e b4 ba e1 a3 f7 ba 8f 9d 85 ba
       -0.0011867603 -0.0013775431 -0.0018893444 -0.0010194051
000110 bd 7a 23 b9 06 60 d0 ba 3b 58 1b ba 56 68 f4 ba
       -0.00015590615 -0.0015897758 -0.0005925928 -0.0018646817
000120 6e e3 0e bb d4 f0 16 bb 59 65 11 3a b1 15 18 bb
       -0.002180304 -0.0023031728 0.0005546413 -0.0023206288
000130 7b 9d 74 ba 70 b8 f3 bd 0e 97 10 3b 0e b4 d8 bd
       -0.0009331328 -0.11900413 0.0022062692 -0.10581218
000140 67 94 4d 3a 1d 56 4f 3a 5d c5 72 bc b7 fa ef 3a
       0.0007842243 0.0007909255 -0.014817563 0.0018308972
000150 ba 84 83 3a b8 d2 2b bb d1 3b 37 bd 42 db 2a bd
       0.0010034062 -0.0026218127 -0.04473478 -0.041713007
000160 39 12 71 b9 e6 b0 a0 39 85 d0 97 bd 87 b5 ee bc
       -0.0002299034 0.00030649378 -0.07412819 -0.029139293
000170 e1 37 fd ba 95 a8 06 3b 07 37 26 bc 5e 9d e7 3a
       -0.0019319021 0.002054726 -0.0101449555 0.00176708
000180 09 47 a1 39 12 63 b6 ba 6e c7 e9 ba 5b e7 d6 39
       0.00030761238 -0.0013915023 -0.0017835924 0.00040989634
000190 10 96 c7 3a 40 8d 09 3e 0e 87 c1 b9 34 34 d5 bd
       0.0015227217 0.13432789 -0.00036912452 -0.104103476
0001a0 da 55 06 ba 65 f0 f0 ba 3c ce 9c 3a 61 7f 4e ba
       -0.0005124487 -0.001838219 0.0011963318 -0.00078772573
0001b0 d1 d8 5d bc 88 9c 57 ba 16 8c b1 b9 14 bc f4 39
       -0.013540463 -0.0008224924 -0.00033864443 0.00046679436
0001c0 03 4a 33 b9 b4 39 97 bd d7 23 cf 3b dd 14 af bc
       -0.00017098342 -0.07384053 0.006321411 -0.021372253
0001d0 a6 60 e0 38 36 f3 40 bb 97 d0 1b ba 90 8f 24 bb
       0.000106991545 -0.002944184 -0.0005943863 -0.0025109984
0001e0 f6 e5 f7 3a 86 e4 17 3b a7 a1 27 bb 72 75 a5 3a
       0.0018913138 0.0023176982 -0.002557853 0.0012623502
0001f0 9d e1 ed bc c1 44 cb bd 2e 34 63 3a 77 e5 7b bc
       -0.029038245 -0.09925223 0.0008667138 -0.015374533
