G_rnc1.pth (torch, 75134 bytes, 6 tensors)

model.0.weight f4 [128, 9]
0	0xbd7baf36	-0.06144639
1	0x3c82d35a	0.01596992
2	0x3cf885db	0.030337265
3	0xbba83aa2	-0.0051339427
4	0xbc5b6d72	-0.013392793
5	0x3d8e5fc7	0.06951862
6	0xbd2346c1	-0.039862398
7	0x3d1f9d1e	0.038968198
8	0xbd8068fc	-0.06270024
9	0x3ea2c57f	0.31791303
10	0x3dff63f2	0.12470235
11	0x3ead1694	0.33806288
12	0x3e916a8f	0.2840161
13	0xbdee1037	-0.116241865
14	0x3d762aa1	0.060099248
15	0x3afe3483	0.0019394312
16	0xbb0b729c	-0.002127803
17	0x3b680528	0.0035403464
18	0xbda14b6e	-0.07875715
19	0x3f044bd4	0.51678205
20	0x3e4ba304	0.19886404
21	0xbdc02e55	-0.09383837
22	0x3dc8edac	0.09810957
23	0x3bcb0bb6	0.0061964644
24	0xb8bbbdfd	-8.952243e-05
25	0xb95b5bab	-0.00020919617
26	0xba36e321	-0.0006976594
27	0xbd1c9aec	-0.038233683
28	0x3ee3ac87	0.44467565
29	0x3c7de7f6	0.015497198
30	0x3eac80ff	0.33692166
31	0x3bea30e9	0.007146944
32	0xbe1d3c4a	-0.1535503
33	0x3e905fe8	0.2819817
34	0xbe89faf3	-0.26949272
35	0x3ec1f419	0.37881544
36	0xbe6c907a	-0.23101988
37	0x3cf61f51	0.03004423
38	0xbdfc1d4b	-0.12310275
39	0x3e498cd2	0.19682625
40	0x3d05bf5e	0.032653205
41	0xbe066bdb	-0.13127081
42	0x3eb2cca3	0.3492175
43	0xbeb560f3	-0.3542553
44	0x3f098a33	0.537265
45	0x3d2a4da1	0.04157794
46	0xbd8a0071	-0.067383654
47	0x3f3e1d88	0.7426381
48	0x3ea22dc7	0.3167555
49	0xbe5d21ab	-0.21594875
50	0x3d5b868e	0.05359512
51	0xb910eae1	-0.0001382041
52	0xb9d322f9	-0.00040271113
53	0x37dc73be	2.627994e-05
54	0xbbb4dd05	-0.0055195116
55	0x3f16b431	0.588687
56	0x3daa5971	0.08317841
57	0x3ce505f3	0.027956938
58	0x3c80683e	0.015674707
59	0xbc4ef713	-0.012632149
60	0xbaedca67	-0.0018141986
61	0x3a7f277a	0.00097333605
62	0xbb188878	-0.00232747
63	0x3d903d35	0.07042924
64	0xbe25ac7e	-0.16179082
65	0xbca93619	-0.020655679
66	0xbc21bf14	-0.009872217
67	0x3cfdfd4b	0.031004569
68	0xbd5deeb2	-0.054182716
69	0xbaf01d55	-0.0018319289
70	0x3a8ac697	0.0010587749
71	0xba6bbf03	-0.00089930015
72	0x3e3b18a8	0.18271124
73	0x3e2bb8f0	0.16769767
74	0xbc000917	-0.007814667
75	0x3d93614f	0.071962945
76	0x3d5814e8	0.052754313
77	0x3e99bc82	0.30026633
78	0xbb56db8f	-0.0032784676
79	0x3b71febd	0.0036925517
80	0xbbb219aa	-0.0054351883
81	0xbca181d5	-0.019715229
82	0xbda49fb8	-0.080382764
83	0xbd4164a9	-0.047215138
84	0x3e382611	0.17983271
85	0x3e83cd20	0.25742435
86	0xbf0b509e	-0.5441989
87	0x3ab9d631	0.0014178214
88	0xba7644e2	-0.00093944196
89	0x3a9a0841	0.0011751727
90	0x3e9e1a38	0.30879378
91	0xbee1ab62	-0.44076067
92	0x3ecba3a7	0.39773294
93	0xbe132995	-0.14371331
94	0xbd7d7c84	-0.061886325
95	0x3e0d7886	0.13815507
96	0x38f0ecc8	0.00011488196
97	0x398a7fb9	0.00026416572
98	0x3882575a	6.2151536e-05
99	0xbe38e253	-0.18055086
100	0xbeccee80	-0.4002571
101	0xbde7eab3	-0.11324062
102	0xbd457d69	-0.048215304
103	0xbeb70b25	-0.3575069
104	0xbcd6e9cd	-0.026234532
105	0xba961bc1	-0.0011452363
106	0x3a900149	0.0010986711
107	0xbaee80c3	-0.0018196333
108	0xbec6d4bb	-0.38834175
109	0xbe214f85	-0.1575299
110	0xbe2cbddb	-0.16869299
111	0x3e23b0f2	0.15985468
112	0xbd86debd	-0.06585453
113	0x3e6cbf9a	0.23119965
114	0x3e1c622c	0.15271825
115	0xbe1c473d	-0.1526155
116	0x3e700d00	0.23442459
117	0x3e14fe47	0.14550124
118	0xbd0a87c8	-0.033820897
119	0x3d534668	0.051580817
120	0xbe026f2d	-0.12737723
121	0x3bb3313b	0.005468515
122	0x3ca67572	0.020319674
123	0xbe4a8f2b	-0.19781177
124	0x3e4c1647	0.19930373
125	0xbe9b2355	-0.30300394
126	0x3e266e5f	0.1625304
127	0x3ddc8a17	0.10768526
128	0xbdaf300b	-0.08554085
129	0xbe77c9c9	-0.24198069
130	0x3cb28c59	0.021795439
131	0x3e55b6e9	0.20870556
132	0xba248ca3	-0.000627706
133	0x3a475ffb	0.000760555
134	0x38df615f	0.000106516054
135	0xbe6bebc1	-0.23039152
136	0x3f002994	0.50063443
137	0xbf94114d	-1.156778
138	0xbeeeb715	-0.46624056
139	0x3ea8b91e	0.32953733
140	0x3c81fbef	0.015867202
141	0x39f3fdba	0.00046537613
142	0xb9f4ce2f	-0.00046692925
143	0xb8a061b2	-7.647592e-05
144	0xbe810017	-0.2519538
145	0x3c661583	0.014043215
146	0xbdff50c5	-0.124665774
147	0x3e120663	0.14260249
148	0x3d836e87	0.06417566
149	0xbc41a88d	-0.011819971
150	0x3a3ff624	0.00073227496
151	0xb9d09e0f	-0.00039790614
152	0x39d3f7ff	0.00040429828
153	0xbef51f34	-0.4787537
154	0xbe964b2b	-0.29354224
155	0xbed79353	-0.42104587
156	0x3f7bd189	0.983666
157	0xbf09cbef	-0.538268
158	0x3f090faa	0.53539526
159	0x3af637f3	0.0018784985
160	0xbb954681	-0.004555524
161	0x3bcd1cca	0.0062595354
162	0x3d067d04	0.032834068
163	0x3f277b75	0.65422755
164	0xbe214d79	-0.1575221
165	0xbc8a8811	-0.016910585
166	0xbdcd9d3b	-0.10039755
167	0xbd6bbaed	-0.057551313
168	0x3a14f82d	0.0005682733
169	0x39ba4e82	0.00035535177
170	0xb8be2034	-9.065904e-05
171	0x3aa8aac5	0.0012868276
172	0x3dc6ea4b	0.097126566
173	0xbec368f0	-0.38165998
174	0xbf07bb92	-0.53020585
175	0x3e864831	0.26226953
176	0xbe85bdcf	-0.26121375
177	0x3a253b26	0.00063030643
178	0xba2b4241	-0.0006533005
179	0x3a60607f	0.0008559301
180	0xbe8cba61	-0.27485946
181	0xbc470cb1	-0.012149022
182	0x3e164aff	0.14677046
183	0x3f3767cf	0.71642774
184	0x3ec7b530	0.39005423
185	0x3d7ffd69	0.06249753
186	0xbb017fe4	-0.0019760067
187	0x3aefa95c	0.0018284726
188	0xbb449373	-0.0029995113
189	0xbe855420	-0.26040745
190	0xbf2ac6d9	-0.6670967
191	0xbee609d1	-0.44929364
192	0xbf003d54	-0.5009358
193	0x3e978fac	0.296018
194	0xbea8f888	-0.33002114
195	0xb96561e8	-0.00021875615
196	0x38cb8963	9.7053846e-05
197	0x3999a274	0.0002930347
198	0x3cf4e6c5	0.029895196
199	0xbe259bd0	-0.16172719
200	0xbf0f993e	-0.56093204
201	0xbf378467	-0.71686405
202	0x3ce1dff4	0.02757261
203	0x3cadef42	0.021232251
204	0xbafa4c0e	-0.0019096152
205	0x3ab38208	0.0013695369
206	0xbb3e6c9d	-0.0029056438
207	0xbf131f57	-0.57469696
208	0x3d03b9ac	0.032159492
209	0xbd332edb	-0.043745857
210	0x3e1e2308	0.15443051
211	0xbe348170	-0.17627501
212	0xbc871491	-0.016489299
213	0x3abfcce7	0.0014633209
214	0xbadb42ef	-0.0016728322
215	0x3b18b2f4	0.0023300024
216	0xbda016a4	-0.07816818
217	0x3edcc4bc	0.43118846
218	0x3de0d106	0.10977368
219	0x3e1f9e8d	0.15587826
220	0xba6d0076	-0.0009040901
221	0xbe6bdea4	-0.2303415
222	0x3a7aa824	0.0009561798
223	0xba72f206	-0.00092676317
224	0x3a8de97f	0.0010827034
225	0xbbbb9744	-0.0057248194
226	0x3f02276d	0.5084141
227	0x3e25869d	0.16164632
228	0xbd060099	-0.032715414
229	0xbd560681	-0.052252296
230	0x3caa7958	0.020809814
231	0x3951dc8c	0.00020013953
232	0xba322087	-0.0006795008
233	0x3a3b85c8	0.0007153419
234	0x3d032dc0	0.032026052
235	0x3d01bd88	0.03167489
236	0x3d3e74b9	0.046498034
237	0xbd56a98c	-0.052407786
238	0x3d9d4297	0.07678717
239	0xbf07ec28	-0.5309472
240	0x39d79432	0.0004111841
241	0xba6eee11	-0.0009114454
242	0xb882b853	-6.233216e-05
243	0x3d34b41e	0.044117086
244	0xbb1a43cb	-0.0023538943
245	0x3e1c011a	0.15234795
246	0xbd9c89bd	-0.07643459
247	0xbc7d6353	-0.015465575
248	0xbd0bf97c	-0.034173474
249	0xbe2b9d7f	-0.16759299
250	0x3e2b2023	0.16711478
251	0xbe8151a0	-0.25257587
252	0xbea765e8	-0.32694936
253	0xbea0cef8	-0.31407905
254	0x3df38e6e	0.11892401
255	0xbe2f7d24	-0.17137581

model.0.bias f4 [128]
0	0x3dc6fdf2	0.09716405
1	0x3d82511d	0.063631274
2	0xbd776df4	-0.060407594
3	0xbef0a704	-0.47002423
4	0xbe514a2a	-0.20438448
5	0xbced570c	-0.028972171
6	0x38ab8fd6	8.180707e-05
7	0x3d0eb482	0.034840114
8	0x3e9394f2	0.28824574
9	0xbea6d082	-0.32580954
10	0xbd8768b0	-0.066117644
11	0x3e216cdc	0.15764183
12	0xbdddf69b	-0.10838052
13	0x3dbc189e	0.09184383
14	0x3e88ca2b	0.26716742
15	0xbea26e15	-0.3172461
16	0x3df283e8	0.11841565
17	0xbd5cafdf	-0.05387866
18	0xbcf9c38f	-0.030488757
19	0xbf22495a	-0.63393176
20	0xbd8e729c	-0.06955454
21	0xbefbc5da	-0.49174386
22	0xbc81c026	-0.015838694
23	0xbb77c25a	-0.0037805052
24	0xbe378e06	-0.17925271
25	0x3bc8e9f6	0.006131406
26	0xbe601ed0	-0.21886754
27	0xbc129e53	-0.00894888
28	0x3db6291e	0.08894561
29	0xbe3f3b69	-0.18675007
30	0xbd02a610	-0.03189665
31	0xbf171233	-0.59012145
32	0x3de2a812	0.11067213
33	0xbd1571f2	-0.03648562
34	0xbdb87e6f	-0.0900849
35	0xbe4643fa	-0.19361869
36	0xbd69a011	-0.057037417
37	0xbeac8e93	-0.33702525
38	0xbc39cdf8	-0.011340611
39	0xbcce2d48	-0.025168076
40	0xbf4358f1	-0.7630759
41	0x3d5cc466	0.053898238
42	0xbd96d742	-0.07365276
43	0xbecd3830	-0.4008193
44	0x3db25a15	0.08708588
45	0x3d83c0fa	0.06433292
46	0xbdf0cbbd	-0.1175761
47	0xbe53d7ad	-0.20687743
48	0xbe4f5e43	-0.20250802
49	0xbe9df8bc	-0.30853832
50	0xbe8c7bc3	-0.27438173
51	0xbcceeae3	-0.025258487
52	0x3dec8429	0.11548645
53	0xbee3f7cb	-0.4452499
54	0x3e94b201	0.29042056
55	0xbe74a710	-0.23891854
56	0x3db608c2	0.08888389
57	0xbec841d3	-0.3911272
58	0xbe8ef991	-0.2792478
59	0xbeba8edd	-0.3643712
60	0xbe6f0266	-0.23340759
61	0xbe289867	-0.16464387
62	0x3e369025	0.17828424
63	0x3d36e7d2	0.044654675
64	0x3e8e537a	0.27798063
65	0xbe92de8c	-0.28685415
66	0x3db84793	0.08998027
67	0xbf13a1d5	-0.5766881
68	0xbebc61be	-0.3679332
69	0xbee05804	-0.4381715
70	0x3c9fad60	0.019491851
71	0xbe867487	-0.26260778
72	0xbe9e0213	-0.30860958
73	0x3e9b12bf	0.3028774
74	0xbe8205da	-0.2539509
75	0x3d8baa09	0.06819541
76	0x3bf04f9f	0.0073337103
77	0xbf1130cc	-0.56715083
78	0x3d810461	0.06299663
79	0xbe8500fd	-0.25977316
80	0x3df68a54	0.12038103
81	0x3d168abc	0.0367534
82	0xbde82856	-0.113358185
83	0x3e18596a	0.14877859
84	0x3e13b264	0.1442352
85	0xbeb81520	-0.35953617
86	0xbde6eb16	-0.11275308
87	0xbe9a6a7d	-0.3015937
88	0xbedf18cb	-0.43573603
89	0x3d22da41	0.039758924
90	0x3d4a3b53	0.049372982
91	0xbda701bd	-0.081546284
92	0xbea77b15	-0.32711092
93	0xbe3ee6a9	-0.18642677
94	0xbe878f23	-0.26476392
95	0xbebef9b0	-0.3729987
96	0x3e6f154d	0.2334797
97	0xbd5e7675	-0.05431219
98	0xbe86cb2b	-0.2632688
99	0x3daa5993	0.08317866
100	0x3ec4f395	0.38467088
101	0x3e019b05	0.12656792
102	0xbc4cb68d	-0.012494695
103	0xbee584b0	-0.44827795
104	0xbe65819a	-0.2241272
105	0xbf0fe36c	-0.56206393
106	0xbe307caa	-0.17235056
107	0xbe34c78d	-0.17654248
108	0xbd957547	-0.072977595
109	0xbe87b6ce	-0.26506656
110	0xbe9e0eaa	-0.30870563
111	0xbcc92d22	-0.024557654
112	0x3d51160b	0.051046412
113	0xbe838cde	-0.2569341
114	0xbd04c81c	-0.0324174
115	0x3d4fe5a9	0.05075613
116	0x3d9e39c5	0.077258624
117	0x3bdf2017	0.0068092453
118	0xbf110b4e	-0.56657875
119	0xbec45ee9	-0.3835366
120	0x3e8455bf	0.2584667
121	0xbf288e2e	-0.6584195
122	0xbd72fd44	-0.059323564
123	0xbe3f1518	-0.1866039
124	0x3df1bb40	0.11803293
125	0xbed2fb33	-0.41207275
126	0x3dc1311f	0.09433197
127	0xbce72cbe	-0.028219577

model.2.weight f4 [128, 128]
0	0xbd873278	-0.06601423
1	0xbd4209d4	-0.047372654
2	0xbddba8f5	-0.10725585
3	0x3dd65f52	0.104674
4	0xbc20ca5d	-0.009813872
5	0x3e22c766	0.15896377
6	0xbe1175a7	-0.14205037
7	0x3b20f271	0.002455857
8	0x3d290b86	0.041270755
9	0x3d803386	0.06259827
10	0x3cdfd333	0.027322387
11	0xbd1a0166	-0.03759899
12	0xbaf18bba	-0.0018428483
13	0x3dceb6f2	0.10093488
14	0x3d537ecc	0.051634595
15	0x3d6a6e2a	0.057233967
16	0x3d10c785	0.035346527
17	0x3d9a2b43	0.07527783
18	0xbd5bbc69	-0.05364648
19	0xbefc5254	-0.4928156
20	0xbe4c34ab	-0.19941966
21	0x3d896122	0.0670798
22	0xbdfa69bc	-0.122271985
23	0x3da2af6d	0.07943616
24	0xbed7ceb3	-0.42149886
25	0x3c292372	0.010323392
26	0x3e6bb16b	0.23016898
27	0xbd0cb8d8	-0.03435597
28	0xbd753b1f	-0.059870835
29	0x3d8f8d66	0.070093915
30	0x3bc6bd45	0.006065043
31	0xbebecb94	-0.37264693
32	0x3d9a4a0d	0.07533655
33	0xbe1f8368	-0.15577471
34	0xbd89daa7	-0.06731158
35	0xbe928ec3	-0.28624544
36	0x3daff165	0.08590964
37	0x3f391f4e	0.7231339
38	0x3d023fb6	0.03179904
39	0x3cd49cf7	0.025953753
40	0x3fd5b5f3	1.6696151
41	0xbe045762	-0.12923959
42	0xbc4723fd	-0.012154576
43	0x3d0b9818	0.034080595
44	0x3cfbbc1b	0.030729344
45	0xbd24d1c2	-0.040239103
46	0x3d5848e5	0.052803893
47	0x3cbd4b55	0.02310721
48	0x3e4172a6	0.18891391
49	0xbec93a8a	-0.39302474
50	0x3e8e2187	0.27759954
51	0xbe336f5d	-0.1752295
52	0xbe53bf21	-0.20678379
53	0xbfc2080e	-1.5158708
54	0x3b57e7cf	0.0032944565
55	0x3ce5e091	0.028061183
56	0xbc90376d	-0.017604554
57	0x3eca8994	0.3955809
58	0xbd0fd9c8	-0.0351198
59	0xc049ec2a	-3.1550393
60	0xbd9f4fc3	-0.07778885
61	0x3dccdabc	0.10002658
62	0x3e0e43af	0.13893007
63	0x3c8eb738	0.01742135
64	0xbd450c12	-0.048107214
65	0x3ecbb064	0.39783013
66	0xbe0cb427	-0.13740598
67	0xbd9cb05e	-0.07650827
68	0x3e8c1586	0.2736017
69	0x3e8b301b	0.2718514
70	0x3b8b20ea	0.004245867
71	0x3e3bf5ac	0.18355435
72	0x3e1ba25e	0.15198657
73	0x3dcaebae	0.099082336
74	0xbd188143	-0.03723265
75	0xbd67158d	-0.056417037
76	0x3bc66a67	0.0060551646
77	0x3c0ca8a9	0.008585134
78	0xbdba5762	-0.09098698
79	0x3d1052c9	0.0352352
80	0x3e29466c	0.1653077
81	0xbc19a5b8	-0.009377889
82	0xbc4d4b2c	-0.012530129
83	0xbba7b522	-0.0051180283
84	0x3d613260	0.054979682
85	0xbee0caf6	-0.43904847
86	0xbd8d2fdc	-0.06893894
87	0xbd70a4b8	-0.058750838
88	0x3e9c1bbb	0.30489907
89	0x3d1bad65	0.03800716
90	0x3d805711	0.062666066
91	0x3d9a6595	0.075389065
92	0x3d08c4e5	0.0333909
93	0xbd458cdb	-0.048230033
94	0x3d9b0a14	0.075702816
95	0xbe5f0448	-0.21778977
96	0xbe9fd308	-0.31215692
97	0xbe5cc762	-0.21560434
98	0x3cfa8b52	0.030584011
99	0x3caa8ca5	0.020819018
100	0x3c73a80c	0.0148716085
101	0xbe8c87cd	-0.27447358
102	0xbe4ec391	-0.2019179
103	0x3f4109c7	0.75405544
104	0xbe6b9a04	-0.23007971
105	0xbd18a059	-0.037262294
106	0x3f3afab9	0.7303882
107	0x3d929215	0.07156769
108	0x3e115e74	0.14196187
109	0xbe53f2b9	-0.2069806
110	0x3d140c12	0.036144324
111	0xbe115520	-0.14192629
112	0x3e0206bd	0.12697883
113	0xbe2162e1	-0.15760376
114	0xbeb493cd	-0.35269013
115	0xbd43ea37	-0.047830787
116	0xbd15b0ac	-0.03654544
117	0x3dcb9893	0.099412106
118	0x3fa9defc	1.3271174
119	0xbe7612af	-0.24030565
120	0xbdc50b52	-0.096213
121	0x3e5db240	0.21650028
122	0x3cd9aadb	0.026570728
123	0x3ec6cede	0.38829702
124	0x3d20de3f	0.03927445
125	0xbf23cc43	-0.63983554
126	0x3c876966	0.01652975
127	0x3d88da8b	0.06682309
128	0xbda9c54a	-0.08289583
129	0xbdd6399e	-0.10460208
130	0xbd5e5c9a	-0.05428753
131	0x3dfbd675	0.12296764
132	0xbced89f5	-0.028996447
133	0xbe914fc8	-0.2838118
134	0xbcb224ed	-0.021746123
135	0x3e2c5147	0.1682788
136	0xbda6817e	-0.081301674
137	0x3ed36d86	0.41294497
138	0xbe2e1d02	-0.17003253
139	0x3bb717eb	0.005587568
140	0xbdf5b7cf	-0.11997949
141	0xbd54548b	-0.05183844
142	0xbde6e2c6	-0.11273722
143	0x3cadd17e	0.021218058
144	0x3e182ff2	0.1486204
145	0xbd1a8c41	-0.037731413
146	0x3d4fdd36	0.050748073
147	0xbe79c4a2	-0.24391416
148	0x3d514c83	0.051098358
149	0x3db4be14	0.08825317
150	0xbe603c3c	-0.21897978
151	0x3e240b6d	0.16019984
152	0x3e0af4ca	0.13569942
153	0xbd7e9657	-0.062155094
154	0x3eef6e56	0.46763867
155	0xbd6ca616	-0.05777558
156	0x3dac57f5	0.08415214
157	0x3c7a2262	0.015266987
158	0xb98aff39	-0.00026511567
159	0xbe8d1b2b	-0.2755979
160	0x3c9946bb	0.018710485
161	0x3e9a03e6	0.300811
162	0x3e0e2962	0.13882974
163	0x3f1e40f0	0.61817837
164	0xbd9bae35	-0.07601587
165	0xbef6b808	-0.4818728
166	0x3e0a6d8c	0.13518351
167	0xbd88abca	-0.06673391
168	0xbfe1b469	-1.7633182
169	0xbe1f0877	-0.15530573
170	0xbd531e1b	-0.051542383
171	0x3e125a78	0.14292324
172	0x3deb1b9a	0.11479874
173	0xbccc0b7a	-0.024907816
174	0xbcd9daf3	-0.026593661
175	0x3e1dafca	0.1539909
176	0x3dddf114	0.10836998
177	0x3ebdc95c	0.37067688
178	0xbe24d5b6	-0.16097149
179	0xbd5e1639	-0.054220412
180	0x3caa3222	0.020775858
181	0xbde7f2f5	-0.11325637
182	0xbda5bf20	-0.08093095
183	0xbd27152a	-0.040791668
184	0x3e148b2d	0.14506216
185	0xbe2dfed9	-0.16991748
186	0x3dafcfa6	0.08584528
187	0x3ebc3216	0.36756963
188	0xbfc9d900	-1.5769348
189	0xbccc2fec	-0.024925195
190	0x3d3391ab	0.04384009
191	0x3dad5bbf	0.08464765
192	0xbd34f224	-0.044176236
193	0xbecb4ec2	-0.39708525
194	0x3a9146cd	0.0011083722
195	0xbdf3bf46	-0.11901717
196	0x3ec22858	0.37921405
197	0xbe1488e6	-0.14505348
198	0x3d45d9df	0.04830348
199	0x3a0ef97b	0.00054540456
200	0x3f3c820c	0.73635936
201	0x3cb81ea4	0.022475548
202	0x3cae8fb7	0.021308763
203	0xbdae3976	-0.085070536
204	0x3e37f260	0.17963552
205	0xbe34269e	-0.17592856
206	0x3d31e06a	0.04342691
207	0xbd3fc387	-0.04681733
208	0x3dc9a6ff	0.09846305
209	0x3c11c8e0	0.00889799
210	0xbbc99ca5	-0.0061527067
211	0x3b8ae0d4	0.0042382274
212	0x3dd525b4	0.10407582
213	0x3e19c573	0.15016727
214	0x3e7cbfd9	0.24682559
215	0x3d40493d	0.046944845
216	0x3d5d3b83	0.054011833
217	0xbce23dea	-0.027617414
218	0x3cb76b26	0.02238996
219	0xbdafee3a	-0.0859036
220	0xbd69731f	-0.056994554
221	0x3d97d9e8	0.07414609
222	0xbe4fb883	-0.2028523
223	0xbea5cff5	-0.3238522
224	0xbd48f586	-0.049062274
225	0x3dc446f9	0.095838495
226	0x3db361d4	0.087588936
227	0xbdb31d88	-0.08745867
228	0xbe626ac0	-0.22111034
229	0x3e634ddb	0.22197668
230	0xbe63bcc3	-0.22239976
231	0xbda1e310	-0.07904637
232	0xbea780b8	-0.32715392
233	0x3c60f3bb	0.013729985
234	0xbd29cad1	-0.041453186
235	0x3dd49af5	0.10381118
236	0x3bb5e17f	0.005550563
237	0x3eed04a5	0.46292606
238	0x3e141404	0.1446076
239	0x3e07a480	0.13246346
240	0x3d6876de	0.056753986
241	0x3d834654	0.064098984
242	0x3d89e6dc	0.06733486
243	0xbe3dd992	-0.18540028
244	0xbdc201a0	-0.09472966
245	0x3ea990b5	0.33118215
246	0x3e97837b	0.295925
247	0x3f003af7	0.50089973
248	0x3c5233f2	0.012829768
249	0x3e2de7f1	0.1698301
250	0x3e3b97f5	0.18319686
251	0xbd743fa0	-0.05963099
252	0x3dfce605	0.1234856
253	0xbdc41474	-0.095742136
254	0x3d3ed321	0.046588067
255	0x3d98851b	0.07447263

model.2.bias f4 [128]
0	0x3d76670f	0.060156878
1	0x3c97908f	0.018501548
2	0x3e14225e	0.14466235
3	0x3ca41691	0.020030292
4	0x3d98dc0a	0.07463844
5	0x3d2ec071	0.042663995
6	0x3d9da647	0.076977305
7	0xbdaebcd6	-0.08532111
8	0x3df6d04d	0.12051449
9	0xbd51467e	-0.051092617
10	0x3c1d0a55	0.009584983
11	0x3cd282d6	0.025697153
12	0xbdaf256b	-0.08552059
13	0x3d6c2288	0.05765012
14	0x3d5621e1	0.052278403
15	0xbd8b4901	-0.06801034
16	0x3d923ecf	0.07140886
17	0xbbbe17ba	-0.0058011683
18	0x3cc18757	0.023624105
19	0x3cb644c8	0.022249594
20	0xbe1c03ec	-0.15235871
21	0x3d351b58	0.04421553
22	0xbdf3d30f	-0.119054906
23	0x3e5c876a	0.21536031
24	0x3cd58227	0.026063038
25	0xbd1f648d	-0.038914252
26	0x3df24f1a	0.11831494
27	0xbc8f368c	-0.017482065
28	0x3e363c4c	0.17796439
29	0x3d5181a4	0.051149026
30	0x3d526352	0.05136425
31	0xbda39583	-0.079875015
32	0xba4c08e4	-0.0007783307
33	0xbcb50949	-0.022099154
34	0xbc86b00a	-0.016441364
35	0x3dc5cc3c	0.09658095
36	0xbd4aa924	-0.04947771
37	0xbd6b0cf0	-0.057385385
38	0xbdb05680	-0.086102486
39	0x3df489ee	0.119403705
40	0xbdb179c1	-0.08665801
41	0x3d60d0d5	0.054886658
42	0x3e28952e	0.16463158
43	0x3d04ef23	0.03245462
44	0xbbc96400	-0.006145954
45	0xbe455349	-0.19270052
46	0x3d08cb84	0.033397213
47	0x3d5a8d29	0.053357277
48	0x3d240e5b	0.040052753
49	0xbcc60492	-0.024172101
50	0xbd815b7a	-0.06316276
51	0x3e130619	0.14357795
52	0x3d403749	0.046927724
53	0x3ddcbaf2	0.107778445
54	0xbcaae647	-0.020861758
55	0x3dd2fed3	0.1030251
56	0x3d931b8e	0.0718299
57	0x3e5ed810	0.21762109
58	0x3e6171ff	0.22016142
59	0x3dbc8178	0.09204382
60	0x3d244018	0.040100187
61	0xbdc16c73	-0.09444513
62	0x3e235776	0.15951332
63	0x3db7e5f2	0.089794055
64	0x3d573274	0.05253835
65	0x3c9d96f7	0.019237025
66	0x3e194c40	0.14970493
67	0x3d2cb357	0.04216322
68	0x3d8f13bd	0.06986187
69	0x3cc1a3e9	0.023637729
70	0xbe37f71b	-0.17965357
71	0x3bc353c5	0.005960914
72	0x3dc9de7c	0.09856889
73	0x3d8e34d9	0.06943674
74	0x3d908591	0.07056726
75	0x3cd9ab84	0.026571043
76	0x3d4ae648	0.04953602
77	0xbb8a3838	-0.0042181276
78	0x3c1f2c32	0.009715127
79	0x3e3864af	0.18007158
80	0xbe48ec22	-0.19621328
81	0xbd5b4b27	-0.053538468
82	0x3b1584fa	0.0022814856
83	0x3cdc223d	0.026871795
84	0x3dc0cd5a	0.09414168
85	0x3c5e88b4	0.013582397
86	0x3da2a03b	0.07940718
87	0x3d93b853	0.072128914
88	0x3d63993e	0.055566065
89	0xbc5b85d0	-0.013398603
90	0x3d8f945f	0.070107214
91	0x3d85ad1d	0.06527159
92	0xbdd54756	-0.10413997
93	0x3d3b412b	0.045716446
94	0xbd255a46	-0.040369295
95	0x3b82b9fc	0.003989456
96	0xbccfe80e	-0.025379207
97	0x3cd665c7	0.026171578
98	0x3c1c2bcb	0.009531925
99	0xbda940e5	-0.08264331
100	0x3e36540f	0.17805503
101	0xbdbd6225	-0.09247235
102	0x3bbebd7e	0.005820929
103	0x3d3a968f	0.04555374
104	0xbe379cba	-0.1793088
105	0x3d37689c	0.044777498
106	0x3c68e96a	0.0142158065
107	0x3d67983f	0.056541678
108	0xbd57a2db	-0.052645545
109	0xbd9a56b3	-0.07536068
110	0xbcca72eb	-0.024713
111	0x3c149267	0.009068108
112	0x3dc1ca76	0.094624445
113	0x39cdeda8	0.00039277715
114	0x3e87c6d8	0.26518893
115	0x3d639453	0.055561375
116	0xbc0a0790	-0.008424655
117	0x3e168a3c	0.1470117
118	0x3c3906f4	0.011293162
119	0x3cbf5daf	0.023360102
120	0x3d131376	0.03590723
121	0x3e02b247	0.1276332
122	0xbd8c3d60	-0.06847644
123	0xbd22500e	-0.039627127
124	0xbd08604d	-0.033294965
125	0xbd0493b4	-0.032367423
126	0xbde0d44a	-0.10977991
127	0x3e567ff0	0.20947242

model.4.weight f4 [3, 128]
0	0xbc816c08	-0.015798584
1	0xbe3afca6	-0.1826044
2	0x3f110426	0.56646955
3	0xbcaaeb34	-0.020864107
4	0x3d96838d	0.0734931
5	0xbe24147c	-0.16023439
6	0x3e14aa66	0.14518127
7	0xbdc138e1	-0.09434677
8	0x3e826f0e	0.25475353
9	0xbefb72b2	-0.49110943
10	0x3e210247	0.15723525
11	0x3e89bf71	0.2690387
12	0x3dafc473	0.085823916
13	0x3d6589a2	0.05603946
14	0x3dc80b4c	0.0976778
15	0xbe712ce5	-0.23552282
16	0x3c98f2ca	0.018670458
17	0x3e4cc636	0.19997486
18	0x3e40b50a	0.18819061
19	0xbdd80a17	-0.105487995
20	0xbea3d331	-0.31997064
21	0xbe3b8ff3	-0.18316631
22	0xbe4919a3	-0.19638686
23	0x3d37ed3c	0.04490398
24	0x3d9459ec	0.07243714
25	0xbc404c94	-0.011737008
26	0x3e27de6b	0.1639344
27	0x3edb44be	0.42825884
28	0x3e081381	0.1328869
29	0x3e88bee5	0.2670814
30	0xbd8f3cea	-0.0699404
31	0xbe2694c9	-0.16267695
32	0xbe9a7bf6	-0.301727
33	0x3e42a303	0.19007497
34	0xbe250025	-0.16113336
35	0x3d563e40	0.05230546
36	0x40109862	2.2593007
37	0xbdb6cee9	-0.08926184
38	0xbe5fb4c8	-0.21846306
39	0x3da91a0e	0.08256923
40	0xbffb9e16	-1.9657619
41	0xbb077d58	-0.0020674076
42	0x3dc929d5	0.09822432
43	0x3c57effa	0.013179773
44	0x3e19508c	0.14972132
45	0xbf30f423	-0.69122523
46	0xbcda2367	-0.02662821
47	0xbc822b46	-0.015889775
48	0xbc9edd31	-0.019392582
49	0x3eca6d81	0.3953667
50	0xbf3bcc8b	-0.7335898
51	0x3d63f9c3	0.055658113
52	0xbc51c204	-0.012802605
53	0x3ddd0331	0.10791624
54	0xbe8debc4	-0.27718937
55	0x3bd1c2eb	0.00640141
56	0x3d4aa70d	0.04947572
57	0x3df7a1b0	0.12091386
58	0x3d627856	0.055290543
59	0xbd97909e	-0.074006304
60	0x3db5e261	0.08881069
61	0xbfa684e7	-1.3009309
62	0x3dbac268	0.09119111
63	0x3ec3b6a0	0.3822527
64	0x3cc0df2f	0.023543922
65	0x3ba06422	0.0048947493
66	0x3dab7e34	0.08373681
67	0x400bc903	2.1841438
68	0xbc80acab	-0.015707335
69	0xbe42b57d	-0.19014545
70	0xbe7e5910	-0.24838662
71	0x3dd0d746	0.1019731
72	0x3e0703c0	0.13185024
73	0x3e7a893e	0.24466416
74	0x3ce792bd	0.028268212
75	0x3f37bddb	0.7177407
76	0x3cadc7dc	0.021213464
77	0xbc7e872f	-0.01553516
78	0x3dc5029d	0.09619639
79	0x3d68aad8	0.056803554
80	0xbfbef2f7	-1.4917897
81	0xbe532854	-0.20620853
82	0x3d57068a	0.05249647
83	0xbf7900f4	-0.9726708
84	0x3ea6e125	0.32593647
85	0x3eab7593	0.3348814
86	0x3e7a6d82	0.24455836
87	0x3f64588b	0.89197606
88	0x3d74372d	0.059622932
89	0xbef0f547	-0.47062132
90	0x3d0d9c64	0.034572974
91	0x3d35adaa	0.044355072
92	0xbdb15388	-0.086585104
93	0x3dccb364	0.099951535
94	0xbf3484eb	-0.70515317
95	0xbe705d0d	-0.23472996
96	0xbe0631c8	-0.13104928
97	0x3d179c0f	0.037014063
98	0x3e3b31f4	0.18280774
99	0xbdf1d6a8	-0.118085206
100	0x3db3295c	0.08748123
101	0xbe18c4ca	-0.14918819
102	0x3de4889d	0.111588694
103	0x3e46f94f	0.19431041
104	0xbf28c202	-0.6592103
105	0x3d551fd5	0.05203231
106	0x3d086ace	0.033304982
107	0x3eab8d1e	0.335061
108	0xbe0369f5	-0.12833388
109	0x3db307f6	0.08741753
110	0xbe24f834	-0.16110307
111	0xbd4de903	-0.050271045
112	0x3e8b62a7	0.27223703
113	0x3d29be0d	0.041441012
114	0x3df40574	0.119151026
115	0x3e1c2739	0.15249337
116	0xbd58f8eb	-0.05297176
117	0x3d4b1461	0.04957998
118	0x3e769570	0.24080443
119	0x3cdb798a	0.026791353
120	0xbe0471e4	-0.12934071
121	0xbe86e168	-0.26343846
122	0xbea05325	-0.31313434
123	0xbe9937d9	-0.2992542
124	0xbe514fa1	-0.20440532
125	0xbd1d713b	-0.038438063
126	0xbe7b9512	-0.24568585
127	0x3dd15a21	0.10222269
128	0x3e9a4596	0.30131215
129	0x3cac450a	0.021029014
130	0x3f39e18f	0.726098
131	0x3e87e80a	0.2654422
132	0xbe97a002	-0.29614264
133	0x3cd7b4ce	0.026331332
134	0x3cb88da6	0.02252848
135	0xbd8bffd9	-0.068359084
136	0x3e81dad8	0.25362277
137	0xbe61d747	-0.22054778
138	0x3efd850d	0.49515572
139	0xbfc23ae0	-1.5174217
140	0x3fd8f3d3	1.6949409
141	0xbe9c5d1b	-0.30539784
142	0xbe767808	-0.24069226
143	0xbef4861a	-0.4775856
144	0xbd878c63	-0.066185735
145	0xc0313e15	-2.7694142
146	0x3eb21dc6	0.3478834
147	0x3d0ab4e2	0.03386391
148	0x3d7ee294	0.0622278
149	0xbdc732c6	-0.09726481
150	0xbc536fe4	-0.012905095
151	0x3b848d71	0.0040451814
152	0xbea79c4b	-0.3273643
153	0xbe6c11c3	-0.2305365
154	0x3e88a87e	0.2669105
155	0xc0698bde	-3.6491618
156	0xbf34068f	-0.7032251
157	0xbe53908d	-0.2066061
158	0xbd7c0a77	-0.061533418
159	0x3d622f95	0.05522116
160	0x3ea81aad	0.32832852
161	0xbf3fc33e	-0.7490729
162	0xbcc9b802	-0.024623875
163	0xbf1c355f	-0.6101894
164	0xbf8ed32d	-1.1158196
165	0x3e3492b2	0.17634085
166	0xbf16a3c1	-0.5884362
167	0xbd4b5b5a	-0.049647667
168	0x3dbf057a	0.093272164
169	0xbdfb8b10	-0.122823834
170	0x3ba8f7a6	0.005156475
171	0x3ee988ca	0.45612174
172	0xbea09b2d	-0.3136839
173	0x3d996f4f	0.074919336
174	0xbe10b21d	-0.14130445
175	0x3cd1d714	0.025615253
176	0x3e3062e8	0.1722523
177	0x3ea39625	0.3195049
178	0xbf09b5a4	-0.53792787
179	0x3db0291a	0.086015895
180	0xbdfa9248	-0.12234932
181	0xbe8c8b2e	-0.27449936
182	0x3ec92898	0.39288783
183	0x3d8dc3b1	0.06922091
184	0x40aedfb6	5.4648085
185	0xbca8783b	-0.020565143
186	0xbe0604d6	-0.13087782
187	0x3f932524	1.149571
188	0x3e12bc04	0.14329535
189	0xbd66549c	-0.056233034
190	0xbe9fdb11	-0.31221822
191	0x3ee61e18	0.44944835
192	0x3adba33b	0.001675702
193	0x3d2f579c	0.04280816
194	0xbc72ef9e	-0.014827637
195	0x3e22d29f	0.15900658
196	0x3d77f35f	0.06053483
197	0xbfd4b1c8	-1.6616755
198	0x3d0692a8	0.032854706
199	0x3f25e5fc	0.64804053
200	0x3e87a605	0.2649385
201	0xbf472d7e	-0.7780379
202	0xbe8d8c29	-0.27645996
203	0x3f7cfb91	0.9882136
204	0xbc9855b9	-0.018595563
205	0xbdefe7e5	-0.11714152
206	0x3e3777db	0.17916815
207	0x3d40d136	0.04707452
208	0x3df2d8a4	0.11857727
209	0xbc41a768	-0.011819698
210	0xbf9d04c5	-1.226708
211	0xc089103c	-4.2832317
212	0xbf007e18	-0.50192404
213	0x3f21a732	0.63145745
214	0x3f6491b9	0.89284855
215	0x3f685295	0.9075101
216	0xbeb56c7b	-0.35434327
217	0x4088de70	4.277153
218	0x3f870c7c	1.0550685
219	0xbe6d0d76	-0.23149666
220	0x3f5c2345	0.8599132
221	0xbd438529	-0.047734413
222	0x3e7f570c	0.2493555
223	0x3ef52b8a	0.4788478
224	0x3ce115d1	0.027476223
225	0x3e663811	0.22482325
226	0xbe614a9a	-0.22001114
227	0x3ed73203	0.42030343
228	0x3d47c1a5	0.04876866
229	0xbdb50adb	-0.08839961
230	0xbd92a07a	-0.07159515
231	0xbe8790a8	-0.2647755
232	0xbdcce142	-0.10003902
233	0xbe1c31a4	-0.15253311
234	0xbe70cfb7	-0.23516737
235	0xbeca7b1a	-0.39547044
236	0xbda60cb4	-0.08107892
237	0x3e289350	0.16462445
238	0x3d83518f	0.064120404
239	0xbd03ade2	-0.03214825
240	0xbf85309f	-1.0405463
241	0x3e56c59b	0.20973818
242	0xbcbf4a95	-0.023350993
243	0x3dcf6a0d	0.101276495
244	0xbd9d6b05	-0.07686428
245	0x3e252114	0.161259
246	0xbf5b5431	-0.8567534
247	0x3e8d19a4	0.27558625
248	0xbdb7e454	-0.08979097
249	0x3f86a80f	1.0520037
250	0x3e141fc1	0.14465238
251	0xbef8f50e	-0.48624462
252	0xbe71d3ea	-0.23615995
253	0xbf128348	-0.5723157
254	0x3d142b94	0.03617437
255	0xbc83450c	-0.016024135

model.4.bias f4 [3]
0	0x3e91eca3	0.28500852
1	0x3d9a49c6	0.075336024
2	0x3dd3174c	0.10307178
